…
To enable the following instructions: SSE3 SSE4.1 SSE4.2 AVX AVX2 AVX_VNNI FMA, in other operations, rebuild TensorFlow with the appropriate compiler flags.
WARNING:tensorflow:TensorFlow GPU support is not available on native Windows for TensorFlow >= 2.11. Even if CUDA/cuDNN are installed, GPU will not be used. Please use WSL2 or the TensorFlow-DirectML plugin.
Model: "cnn_voz_base"
+--------------------------------------------------------------------------+
| Layer (type)                    | Output Shape           |       Param # |
|---------------------------------+------------------------+---------------|
| mfcc_input (InputLayer)         | (None, 120, 151)       |             0 |
|---------------------------------+------------------------+---------------|
| add_channel (Reshape)           | (None, 120, 151, 1)    |             0 |
|---------------------------------+------------------------+---------------|
| conv1 (Conv2D)                  | (None, 120, 151, 32)   |           320 |
|---------------------------------+------------------------+---------------|
| bn1 (BatchNormalization)        | (None, 120, 151, 32)   |           128 |
|---------------------------------+------------------------+---------------|
| relu1 (ReLU)                    | (None, 120, 151, 32)   |             0 |
|---------------------------------+------------------------+---------------|
| pool1 (MaxPooling2D)            | (None, 60, 75, 32)     |             0 |
|---------------------------------+------------------------+---------------|
| drop1 (Dropout)                 | (None, 60, 75, 32)     |             0 |
|---------------------------------+------------------------+---------------|
| conv2 (Conv2D)                  | (None, 60, 75, 64)     |        18,496 |
|---------------------------------+------------------------+---------------|
| bn2 (BatchNormalization)        | (None, 60, 75, 64)     |           256 |
|---------------------------------+------------------------+---------------|
| relu2 (ReLU)                    | (None, 60, 75, 64)     |             0 |
|---------------------------------+------------------------+---------------|
| pool2 (MaxPooling2D)            | (None, 30, 37, 64)     |             0 |
|---------------------------------+------------------------+---------------|
| drop2 (Dropout)                 | (None, 30, 37, 64)     |             0 |
|---------------------------------+------------------------+---------------|
| conv3 (Conv2D)                  | (None, 30, 37, 64)     |        36,928 |
|---------------------------------+------------------------+---------------|
| bn3 (BatchNormalization)        | (None, 30, 37, 64)     |           256 |
|---------------------------------+------------------------+---------------|
| relu3 (ReLU)                    | (None, 30, 37, 64)     |             0 |
|---------------------------------+------------------------+---------------|
| pool3 (MaxPooling2D)            | (None, 15, 18, 64)     |             0 |
|---------------------------------+------------------------+---------------|
| drop3 (Dropout)                 | (None, 15, 18, 64)     |             0 |
|---------------------------------+------------------------+---------------|
| gap (GlobalAveragePooling2D)    | (None, 64)             |             0 |
|---------------------------------+------------------------+---------------|
| dense1 (Dense)                  | (None, 64)             |         4,160 |
|---------------------------------+------------------------+---------------|
| bn_head (BatchNormalization)    | (None, 64)             |           256 |
|---------------------------------+------------------------+---------------|
| relu_head (ReLU)                | (None, 64)             |             0 |
|---------------------------------+------------------------+---------------|
| drop_head (Dropout)             | (None, 64)             |             0 |
|---------------------------------+------------------------+---------------|
| softmax (Dense)                 | (None, 7)              |           455 |
+--------------------------------------------------------------------------+
 Total params: 61,255 (239.28 KB)
 Trainable params: 60,807 (237.53 KB)
 Non-trainable params: 448 (1.75 KB)


Pesos de clase: {0: 0.8910891089108911, 1: 0.8910891089108911, 2: 0.9, 3: 0.9, 4: 0.9, 5: 3.2142857142857144, 6: 0.9}

[3/5] Entrenando hasta 120 epocas (batch=32) ...
Epoch 1/120

Epoch 1: val_loss improved from None to 1.91519, saving model to C:\Landivar\semestre7\Inteligencia artificial\ProyectoFinal_IA\models\cnn_voz_base.keras
…
